model.onnx (onnx, 33598 bytes, 5 tensors)

conv1.weight f4 [64, 1, 9, 9]
-0.02612518 -0.09883661 -0.03151186 -0.0836541 0.060103998 -0.119195886 -0.058021404 -0.07486976
-0.06395815 -0.13676625 -0.13259153 0.043706264 -0.08533152 0.011326989 -0.05422705 0.040129002
0.020689279 0.0171442 0.052045196 0.11937699 0.15941054 0.0036170408 -0.097292304 -0.06253177
0.09283178 -0.10339906 -0.047902077 0.066414684 0.056989923 0.1335781 0.072139524 -0.0053011957
-0.022336287 -0.07406453 -0.015396305 -0.100169264 -0.033394706 -0.04100252 0.070782155 0.09418894
-0.029624555 0.088174425 -0.016689707 0.034791157 0.044888422 0.043841474 -0.049469348 -0.065817244
0.026049433 -0.12154798 0.020710975 0.082289115 -0.07343912 -0.0033006712 -0.11325622 -0.091591306
-0.016835446 0.12246761 -0.0070410804 0.03777733 0.098805696 0.02206954 0.05573795 0.020511815
-0.03147651 -0.04913127 0.061153598 0.02779804 -0.07648328 0.08115528 -0.057657033 -0.071382344
-0.12547253 0.011439012 0.05272407 -0.00685458 0.03819223 -0.018813686 0.09198333 -0.13294123
-0.085349545 0.047359176 0.051173095 0.08838556 -0.07519179 -0.026293673 0.07325865 0.047469463
-0.045862265 -0.021235652 0.00015042273 -0.168499 0.016427513 -0.110390164 -0.11746511 -0.05266095
0.05877859 -0.14714459 -0.019437455 0.0898386 0.0037971025 0.1568841 0.0716789 -0.050807834
0.15156405 0.06778119 0.058895335 0.037763722 0.07783599 -0.11030012 -0.0128460545 -0.06566494
0.053274065 0.07731165 0.1320458 0.05283017 -0.07660052 0.049083497 0.016510906 -0.06009048
-0.016527241 0.05805681 0.03244063 0.14149332 -0.14199997 0.015665734 -0.052923005 -0.10184348
0.029030656 -0.040312637 -0.08372875 0.054142404 0.14934607 0.041560754 0.11921618 0.109023035
0.1181074 0.12177942 0.12411623 0.04796415 -0.010909986 0.022098914 -0.09735995 0.06982712
-0.12786041 0.02422976 -0.115268454 -0.034219377 0.065869436 -0.029336525 0.05001866 -0.15636668
-0.04893713 -0.027018351 0.02021287 0.103264235 -0.017400771 0.084912874 0.041669138 0.03435846
0.03575962 -0.0017596708 0.105687864 -0.02394919 0.16714889 0.061995078 0.14853063 -0.061541177
0.09760401 -0.0045039533 0.10530385 0.0041475557 -0.077339254 -0.15588064 -0.2278592 -0.17882761
-0.14250545 -0.14952014 -0.17814097 -0.13415265 0.123238295 -0.035716034 0.06958559 -0.09169156
0.07124828 0.10524174 0.21831791 0.003391051 0.13610055 0.06847039 -0.11346386 -0.05840879
-0.025277147 -0.058926526 0.03669184 0.16438112 -0.011341768 -0.00737176 -0.038280964 -0.23708332
-0.058441747 -0.017521016 -0.1380086 0.10894544 0.01263739 -0.13144818 0.028334545 0.008233183
-0.083580546 0.1103486 0.044809494 -0.07368602 0.1547903 0.13111058 -0.06172211 -0.052135535
0.15179308 0.08457518 0.116716266 0.13156179 0.18563554 0.025231326 0.0739064 -0.0014991111
0.12792814 -0.11351935 -0.19418955 -0.09875008 -0.06269914 -0.09236552 -0.15328696 -0.0807578
-0.02073402 -0.11857771 -0.016488394 0.03598153 0.1559369 0.09356344 -0.011075767 0.015528648
0.04714382 -0.04744916 0.050803773 0.018664168 0.014775229 -0.08664561 -0.13752869 -0.07308512
-0.104440615 -0.030798122 -0.069443904 -0.033791628 -0.033132408 0.14748536 0.08460687 0.12569028
00000000: 7904 d6bc d96a cabd 9512 01bd d752 abbd
00000010: 9c2f 763d f91c f4bd daa7 6dbd 5155 99bd
00000020: 7efc 82bd 740c 0cbe 13c6 07be 5705 333d
00000030: 4bc2 aebd d694 393c 2f1d 5ebd 4f5e 243d
00000040: 907c a93c fe71 8c3c 582d 553d ec7b f43d
00000050: 843c 233e e00b 6d3b 3041 c7bd a810 80bd
00000060: 971e be3d e3c2 d3bd f834 44bd 6c04 883d
00000070: 446e 693d b3c8 083e e3bd 933d a7b5 adbb
00000080: 97fa b6bc 25af 97bd c940 7cbc 8b25 cdbd
00000090: e3c8 08bd 42f2 27bd 3cf6 903d 22e6 c03d
000000a0: 32af f2bc cb94 b43d dab8 88bc 2c81 0e3d
000000b0: ecdc 373d 1e93 333d 5fa0 4abd 31cb 86bd
000000c0: 9f65 d53c 26ee f8bd 10aa a93c 3287 a83d
000000d0: 4067 96bd 1350 58bb e1f2 e7bd 3994 bbbd
000000e0: 7dea 89bc 4cd0 fa3d ddb8 e6bb 67bc 1a3d
000000f0: a45a ca3d 2ecb b43c 7a4d 643d 6508 a83c
00000100: 83ed 00bd df3d 49bd 327c 7a3d b7b8 e33c
00000110: 44a3 9cbd bd34 a63d c829 6cbd e830 92bd
00000120: df7b 00be b26a 3b3c 32f5 573d 629c e0bb
00000130: 756f 1c3d 291f 9abc c261 bc3d bf21 08be
00000140: becb aebd b2fb 413d e19a 513d 7d03 b53d
00000150: 27fe 99bd d465 d7bc a208 963d 576f 423d
00000160: 12da 3bbd 64f6 adbc cbba 1d39 008b 2cbe
00000170: fe92 863c 3d14 e2bd 8c91 f0bd 02b3 57bd
00000180: d2c1 703d 12ad 16be 4c3b 9fbc 4dfd b73d
00000190: cfd8 783b 3aa6 203e 63cc 923d e01b 50bd
000001a0: 9b33 1b3e ddd0 8a3d 3c3c 713d 22ae 1a3d
000001b0: 7a68 9f3d 08e5 e1bd 4278 52bc 577b 86bd
000001c0: e835 5a3d 9255 9e3d 0437 073e 7364 583d
000001d0: bce0 9cbd c70b 493d e141 873c 6f21 76bd
000001e0: 2364 87bc facc 6d3d 77e0 043d a0e3 103e
000001f0: 7168 11be 6d55 803c cbc5 58bd 5093 d0bd
00000200: b3d1 ed3c dd1e 25bd fb79 abbd 6dc4 5d3d
00000210: 2dee 183e 9c3b 2a3d 9d27 f43d 7847 df3d
00000220: 4be2 f13d 7d67 f93d a630 fe3d 0e76 443d
00000230: ccbf 32bc c808 b53c a764 c7bd 8501 8f3d
00000240: d7ed 02be 7d7d c63c de11 ecbd 9e29 0cbd
00000250: 8ee6 863d 2753 f0bc 5ee0 4c3d 961e 20be
00000260: 4d72 48bd 9755 ddbc 7695 a53c 337c d33d
00000270: 108c 8ebc cde6 ad3d 42ad 2a3d 75bb 0c3d
00000280: ae78 123d c1a4 e6ba e172 d83d 1731 c4bc
00000290: 1429 2b3e 8dee 7d3d 6a18 183e 9a12 7cbd
000002a0: 9ce4 c73d e695 93bb 8ba9 d73d 38e8 873b
000002b0: 0b64 9ebd 2d9f 1fbe ec53 69be 961e 37be
000002c0: f3ec 11be cf1b 19be 966a 36be 505f 09be
000002d0: 5c64 fc3d fa4a 12bd e482 8e3d c9c8 bbbd
000002e0: 9eea 913d fb88 d73d bb8e 5f3e 653c 5e3b
000002f0: f15d 0b3e 343a 8c3d bd5f e8bd 0e3e 6fbd
00000300: 0512 cfbc f15c 71bd 2f4a 163d 8653 283e
00000310: d3d2 39bc ce8e f1bb 80cc 1cbd f8c5 72be
00000320: 9d60 6fbd 3c88 8fbc 2052 0dbe c91e df3d
00000330: 0e0d 4f3c 5a9a 06be d91d e83c 79e4 063c
00000340: 472c abbd 72fe e13d 298a 373d b2e8 96bd
00000350: 5981 1e3e da41 063e 53d0 7cbd 128c 55bd
00000360: a56f 1b3e c135 ad3d f008 ef3d 22b8 063e
00000370: 3e17 3e3e edb1 ce3c 3d5c 973d d27d c4ba
00000380: 98ff 023e d57c e8bd a0d9 46be 7b3d cabd
00000390: 6868 80bd 222a bdbd 42f7 1cbe 5864 a5bd
000003a0: 64da a9bc dfd8 f2bd ab12 87bc 5e61 133d
000003b0: ecad 1f3e 309e bf3d 2277 35bc df6b 7e3c
000003c0: e119 413d 0d5a 42bd 9e17 503d 99e5 983c
000003d0: cd13 723c 4173 b1bd 52d4 0cbe a7ad 95bd
000003e0: f6e4 d5bd 584c fcbc 9b38 8ebd 1769 0abd
000003f0: d9b5 07bd 6706 173e 5e46 ad3d f4b4 003e

conv1.bias f4 [64]
-0.09199765 -0.0069906837 -0.013491083 0.008116337 0.039450478 -0.0633017 -0.04400425 -0.1313651
-0.0070287716 -0.021459937 0.03461827 -0.04779621 0.00022989856 -0.018376667 0.20036632 -0.016761422
0.0341604 -0.07970199 -0.09558119 0.017353514 0.024193423 -0.07088844 -0.016211612 0.17448027
-0.07632504 -0.059026606 0.009751307 -0.010154149 -0.019393021 -0.03501211 -0.049419448 0.00023308251
-0.005251608 -0.11956541 -0.08944053 -0.0049142707 -0.015513108 0.014276081 -0.038844507 -0.05859734
-0.07576522 0.12155404 0.019581975 -0.14205861 -0.045563962 -0.006340399 0.055179916 0.012416321
-0.0418872 0.0007272333 -0.07636907 -0.24142581 -0.0628327 -0.02591791 0.009735131 0.04981663
0.006338967 0.15445328 0.20805813 0.018074004 0.057306554 -0.010672467 0.12054265 -0.10011319
00000000: 4469 bcbd 1b12 e5bb b409 5dbc 62fa 043c
00000010: d396 213d 52a4 81bd cd3d 34bd 9384 06be
00000020: 9c51 e6bb c0cc afbc e3cb 0d3d f5c5 43bd
00000030: ed10 7139 aa8a 96bc d42c 4d3e 404f 89bc
00000040: c7eb 0b3d cc3a a3bd 12c0 c3bd f528 8e3c
00000050: 4931 c63c f52d 91bd 37ce 84bc f5aa 323e
00000060: 4d50 9cbd e2c5 71bd f2c3 1f3c 965d 26bc
00000070: 1dde 9ebc dc68 0fbd 0c6c 4abd 9c67 7439
00000080: ae15 acbb b6de f4bd 992c b7bd e407 a1bb
00000090: b12a 7ebc 39e6 693c 6b1b 1fbd c403 70bd
000000a0: cc2a 9bbd 53f1 f83d 616a a03c d077 11be
000000b0: 47a1 3abd 1fc3 cfbb 5604 623d d36d 4b3c
000000c0: ea91 2bbd cda3 3e3a 6367 9cbd 5438 77be
000000d0: 6eae 80bd cc51 d4bc 1980 1f3c 860c 4c3d
000000e0: 1cb7 cf3b 0029 1e3e 310d 553e ef0f 943c
000000f0: 47ba 6a3d 92db 2ebc 11df f63d 2508 cdbd

conv2.weight f4 [32, 64, 1, 1]
-0.0933111 -0.03840381 -0.0044865757 0.11166629 -0.061236292 0.08942723 0.08164546 -0.030020624
0.08622959 -0.11288123 -0.058141097 0.017784715 0.074326396 -0.051175132 -0.09435487 0.054488182
-0.12235564 0.029512182 0.071112484 0.044824556 -0.113876626 -0.10021548 0.1077389 -0.104178324
0.11703621 -0.06768398 -0.030963793 -0.100467384 -0.030301481 -0.04364112 -0.11406477 0.00048342347
-0.115779996 0.075214535 -0.07616699 -0.09280752 -0.1173635 0.045091555 0.08569375 -0.07319835
-0.040524095 -0.008691385 -0.00013062358 -0.056723744 0.11429967 0.07336426 0.057280496 -0.070195705
-0.028748095 -0.120783135 -0.10076615 0.067438215 -0.10677183 -0.041572288 -0.07239935 -0.018520772
0.06929368 0.07323885 0.058615953 -0.08276737 0.038733676 0.036811367 -0.089041114 0.058735996
0.004226367 -0.08039044 0.044414237 -0.067517385 -0.05122359 0.07580955 0.031468358 -0.032978058
0.04407002 0.004028365 0.006884494 -0.11254469 0.107574366 -0.010158298 -0.034498915 -0.1258578
0.062484547 0.024535717 -0.01280053 0.036095902 -0.027936086 -0.064868644 0.03767769 -0.0010266602
-0.042747214 0.037212417 0.04402773 -0.05043377 0.021700038 -0.009829357 0.10497171 0.012923087
0.0020968616 0.020986706 0.04883516 -0.09605752 -0.114636034 0.048928566 -0.040194526 0.05483614
-0.045225 0.09657004 0.033446163 0.048334043 0.07711883 -0.009184513 -0.004068791 -0.009008709
0.036533184 0.0126990825 -0.04533729 0.0735831 -0.0088884635 -0.070387945 -0.086384885 -0.004265382
-0.036478728 -0.06441049 0.08538298 -0.005648818 -0.0027078213 0.09530604 0.04245629 0.07321435
0.10270023 -0.15971676 0.014976529 0.09721177 0.2571272 0.13585149 0.0031910825 -0.041771818
1.0513284 -0.036506116 -0.0066942335 -0.035078228 0.7531094 -0.005769921 0.02831752 -1.006213
0.051894497 -0.03148991 -0.04518012 -0.0031069866 0.028990807 0.117467985 0.10644613 0.091687396
0.20231676 0.048109528 0.08837804 0.2795911 -0.3941754 0.010497601 0.007770105 0.16979618
-0.044382416 0.07167079 0.020541938 0.021296516 0.124573 0.09780391 -0.20582528 0.02773492
-0.013699663 -0.007402669 -0.13589154 -0.004337464 0.032498054 -0.84561443 -0.06185846 -0.7921647
0.18978065 0.0026371926 0.025678981 -0.039726503 0.13304505 0.115455225 0.0623673 -0.033003796
0.1336414 -0.0058289217 0.06679761 0.015439431 -0.19946796 -0.064319335 -0.04454442 0.046520665
0.03184522 -0.013179023 -0.06484717 0.09742347 -0.15630224 -0.2225455 0.11369901 -0.01090858
-0.21591577 0.1115828 -0.053653453 0.4919654 0.099120095 -0.11020274 -0.17485565 0.102540575
-0.045124803 -0.013448648 0.055832013 0.049637638 -0.012561655 0.0528522 0.11732777 -0.21238302
0.059976745 0.10215721 0.026679263 0.24134168 -0.101298794 -0.07378804 0.024178805 -0.03426867
-0.15077445 0.13338436 -0.13374114 0.04626167 0.117430374 0.2059095 0.085718416 0.082486555
0.079119675 0.08984837 0.08974545 -0.028133951 0.094855085 0.16977932 0.052287966 0.3077232
-0.05508174 0.28550175 -0.31237784 0.2931309 -0.025834503 -0.0002258702 -0.09167649 -0.07103671
-0.22518323 0.020481566 0.075027026 0.05995639 0.14340903 -0.007344796 -0.071308784 -0.02485156
00000000: e419 bfbd 504d 1dbd 2004 93bb 4cb1 e43d
00000010: e8d2 7abd a025 b73d bc35 a73d d0ed f5bc
00000020: 2499 b03d 462e e7bd 5c25 6ebd 40b1 913c
00000030: 7038 983d 049d 51bd 203d c1bd 002f 5f3d
00000040: 9895 fabd 88c3 f13c 6ca3 913d f499 373d
00000050: 2638 e9bd c63d cdbd 36a6 dc3d 725b d5bd
00000060: aeb0 ef3d e69d 8abd c8a7 fdbc d8c1 cdbd
00000070: d03a f8bc 08c1 32bd ca9a e9bd 0074 fd39
00000080: 101e edbd 140a 9a3d 70fd 9bbd de11 bebd
00000090: 465c f0bd ecb1 383d 3480 af3d 04e9 95bd
000000a0: 98fc 25bd 5066 0ebc 00f8 08b9 2857 68bd
000000b0: f215 ea3d 0040 963d f49e 6a3d c4c2 8fbd
000000c0: 2081 ebbc 265d f7bd 7c5e cebd 0c1d 8a3d
000000d0: 30ab dabd b447 2abd 1c46 94bd e0b8 97bc
000000e0: d8e9 8d3d 40fe 953d 4817 703d f081 a9bd
000000f0: 34a7 1e3d 84c7 163d 305b b6bd 2895 703d
00000100: 567d 8a3b bea3 a4bd b4eb 353d 8e46 8abd
00000110: d4cf 51bd 0a42 9b3d f7e4 003d 0014 07bd
00000120: c482 343d 6000 843b 5297 e13b d57d e6bd
00000130: f34f dc3d fd6e 26bc bc4e 0dbd dee0 00be
00000140: ccef 7f3d 21ff c83c 50b9 51bc 4cd9 133d
00000150: 38da e4bc dad9 84bd ec53 1a3d 0091 86ba
00000160: b417 2fbd 0c6c 183d 6c56 343d a493 4ebd
00000170: 47c4 b13c 500b 21bc 68fb d63d 5bbb 533c
00000180: 806b 093b 50ec ab3c 6007 483d ceb9 c4bd
00000190: 4cc6 eabd 5269 483d 04a3 24bd dc9b 603d
000001a0: d93d 39bd 83c6 c53d d8fe 083d ebf9 453d
000001b0: 7af0 9d3d a47a 16bc 7e53 85bb 4499 13bc
000001c0: d2a3 153d d00f 503c 98b3 39bd bdb2 963d
000001d0: eba0 11bc 8e27 90bd 8fea b0bd 9ec4 8bbb
000001e0: b86a 15bd a6e9 83bd 46dd ae3d b819 b9bb
000001f0: b475 31bb d02f c33d a6e6 2d3d 68f1 953d
00000200: 8054 d23d ca8c 23be 1e60 753c f716 c73d
00000210: 2da6 833e a71c 0b3e 7b21 513b ed18 2bbd
00000220: ee91 863f 7087 15bd 4d5b dbbb 30ae 0fbd
00000230: c7cb 403f 9b11 bdbb 25fa e73c 96cb 80bf
00000240: 538f 543d 90fb 00bd ca0e 39bd 969e 4bbb
00000250: 217e ed3c 0e93 f03d 6e00 da3d 9ac6 bb3d
00000260: 202c 4f3e 7f0e 453d 8cff b43d 9126 8f3e
00000270: 5cd1 c9be 21fe 2b3c 5d9c fe3b 0ddf 2d3e
00000280: 56ca 35bd 23c8 923d 9147 a83c 0876 ae3c
00000290: 2120 ff3d 6b4d c83d ddc3 52be 5834 e33c
000002a0: 8d74 60bc 1792 f2bb 2727 0bbe 4921 8ebb
000002b0: ae1c 053d 307a 58bf 4c5f 7dbd 4ecb 4abf
000002c0: dc55 423e c0d4 2c3b ba5c d23c 42b8 22bd
000002d0: f63c 083e ca73 ec3d db74 7f3d fd2e 07bd
000002e0: 4bd9 083e 8a00 bfbb 2fcd 883d abf5 7c3c
000002f0: 5441 4cbe dbb9 83bd 3674 36bd 748c 3e3d
00000300: 2270 023d d4ec 57bc 98ce 84bd f585 c73d
00000310: b20d 20be f8e2 63be 07db e83d e7b9 32bc
00000320: 0619 5dbe 8685 e43d b9c3 5bbd e4e2 fb3e
00000330: 7aff ca3d f9b1 e1bd 5c0d 33be cb00 d23d
00000340: c9d4 38bd b857 5cbc 1cb0 643d d650 4b3d
00000350: 66cf 4dbc 8c7b 583d 8b49 f03d ef7a 59be
00000360: 2daa 753d cd37 d13d 788e da3c 4622 773e
00000370: be75 cfbd 2f1e 97bd a112 c63c 4e5d 0cbd
00000380: 9e64 1abe e995 083e 70f3 08be e07c 3d3d
00000390: 567f f03d f1d9 523e 238d af3d b6ee a83d
000003a0: 7f09 a23d 6c02 b83d 76cc b73d 2c79 e6bc
000003b0: 6243 c23d a1da 2d3e e82b 563d e58d 9d3e
000003c0: 649d 61bd 492d 923e fdef 9fbe 4115 963e
000003d0: e1a2 d3bc 92d7 6cb9 e2c0 bbbd b27b 91bd
000003e0: 6f96 66be f5c8 a73c c5a7 993d d594 753d
000003f0: d1d9 123e 9dac f0bb 570a 92bd 8095 cbbc

conv2.bias f4 [32]
-0.11480717 -0.12717028 0.043245126 0.09994873 0.124339625 0.042179346 0.041285343 -0.02552982
0.049365964 0.1802983 -0.10762774 0.0631438 0.06325433 0.045284517 0.06374829 -0.116130166
-0.00956038 -0.029730754 -0.1362688 0.13129967 0.10450867 0.0068174736 -0.10794264 -0.057401147
-0.057576235 0.058672167 -0.08427639 -0.10123801 -0.07997268 -0.030990448 -0.11059748 -0.013652788
00000000: 0620 ebbd ed38 02be cd21 313d ebb1 cc3d
00000010: c6a5 fe3d 40c4 2c3d d21a 293d ea23 d1bc
00000020: f733 4a3d 1ea0 383e ef6b dcbd 8951 813d
00000030: 7c8b 813d 427c 393d 778e 823d a7d5 edbd
00000040: 24a3 1cbc e98d f3bc 0c8a 0bbe 6c73 063e
00000050: a408 d63d 1d65 df3b 0811 ddbd 771d 6bbd
00000060: 0fd5 6bbd 3a52 703d 1a99 acbd e055 cfbd
00000070: b7c8 a3bd aedf fdbc ee80 e2bd f1af 5fbc

conv3.weight f4 [1, 32, 5, 5]
-0.008525549 0.0035200838 0.003459384 0.009768143 -0.029786414 0.013810849 0.008307718 -0.011501602
-0.01553822 0.024603216 -0.021934835 -0.030496337 -0.0117793325 0.008266919 -0.021785004 -0.025921624
-0.027509186 -0.00030966976 -0.034490045 0.021382285 0.0028736354 -0.018881174 -0.0030236277 -0.025298866
-0.03288434 -0.02056064 -0.0023582976 0.020780468 0.017598748 0.01684912 0.0032637056 -0.021256719
-0.0010275604 -0.025341121 0.0075323167 0.0040910905 -0.026372438 0.036462214 0.0050775553 0.022834891
0.033756953 0.010923634 0.003447463 0.007930588 0.014113465 -0.022739973 0.018804228 0.024404041
-0.004935201 0.013706352 -0.05001869 -0.03175342 -0.09967924 -0.09514727 -0.07688846 0.012562881
-0.07140314 0.024033917 0.02240095 -0.10439188 -0.04426435 -0.04913145 -0.026224624 -0.049378738
-0.02899219 -0.0064509474 -0.021134775 -0.07070379 -0.048283868 -0.014320243 -0.043529335 -0.0004534776
0.016205786 0.057229366 -0.10513522 -0.06828542 -0.0659353 -0.016156727 -0.04892656 -0.020822193
0.0062748226 0.02172844 -0.040731974 0.0036182005 -0.052301172 0.043689203 0.032876667 0.064464875
0.037243083 -0.050828684 0.0139423795 -0.038867056 0.029803764 0.0034875725 -0.04333299 0.027570419
-0.09399386 -0.06572545 -0.022832163 -0.09228886 0.036359042 -0.056549337 0.02679724 0.052441187
0.20196497 0.06410275 -0.012168493 -0.13846187 -0.21171351 -0.009469424 0.13652728 -0.043990724
-0.087427 -0.14624032 -0.006204955 0.024548514 -0.033841416 -0.041840766 -0.02430541 0.034652647
-0.036996394 -0.026658786 0.11169901 0.11717337 0.07278411 -0.059500944 0.025691114 0.022282962
0.035431672 0.06572035 -0.043609116 -0.010730415 0.021416789 0.028298927 0.026920201 -0.038973235
0.06046067 0.008368457 0.0032613664 0.014710024 0.05495173 0.07372107 0.031166343 -0.001767249
-0.028888948 0.04887265 0.044457067 0.0076396028 -0.0068809437 0.005898034 -0.0032478175 0.023436911
0.020014374 0.03829011 0.01576721 -0.011767164 0.03258057 -0.0020049934 0.02027592 0.039264265
0.023702528 -0.005313696 0.016696258 0.032374438 -0.0049463725 -0.0126022585 -0.016792597 -0.020932175
-0.007211258 -0.0062783663 0.03675312 0.02639906 -0.012614654 -0.012022073 -0.022812704 0.0015731395
-0.012458724 0.038074464 0.108016714 -0.044973418 0.014235994 -0.019521426 -0.14345638 -0.060603093
0.04487184 -0.001262593 -0.12136673 -0.19968405 -0.05379297 0.05315638 0.023109293 -0.1172685
-0.026668243 0.09870357 -0.01964079 -0.03782148 -0.058579236 0.036658905 0.010696236 -0.036926083
-0.08927646 0.004024463 0.007753403 0.07626485 -0.11677115 -0.04202516 -0.07914302 -0.08213561
0.025860032 0.086357914 -0.10749479 0.30082455 0.13392031 -0.21105391 0.017783219 -0.03502309
0.14811607 0.09778424 -0.103357986 0.07386082 -0.03154481 -0.12428262 -0.13665287 0.020914009
-0.048666034 0.07167139 -0.11609989 -0.14039525 -0.08472012 0.032341793 0.050775785 -0.11422131
-0.01996597 0.03294161 -0.009465353 -0.024032742 0.050668422 0.18311734 0.172194 -0.007886271
-0.0049214275 0.10546603 0.123441175 0.0027648816 -0.046764463 -0.014651341 -0.05038493 -0.075370714
-0.08243332 -0.0022518297 0.034656197 -0.003310472 -0.01125622 0.009129051 -0.014900246 0.012800951
00000000: bfae 0bbc 35b1 663b d5b6 623b 900a 203c
00000010: a302 f4bc e646 623c 181d 083c 3771 3cbc
00000020: 0594 7ebc af8c c93c afb0 b3bc 74d3 f9bc
00000030: 1afe 40bc f971 073c 7776 b2bc 9659 d4bc
00000040: f25a e1bc 2c5b a2b9 6f45 0dbd e729 af3c
00000050: 9a53 3c3b b1ac 9abc 0e28 46bb 913f cfbc
00000060: bbb1 06bd ca6e a8bc ab8d 1abb cd3b aa3c
00000070: 402b 903c 2a07 8a3c e5e3 553b 9222 aebc
00000080: 35af 86ba 2f98 cfbc a7d1 f63b 8e0e 863b
00000090: 030b d8bc 6759 153d 9f61 a63b 3d10 bb3c
000000a0: bb44 0a3d 0bf9 323c d5ee 613b 4cef 013c
000000b0: 2a3c 673c 2e49 babc 530b 9a3c fcea c73c
000000c0: 77b7 a1bb 9b90 603c 66e0 4cbd e00f 02bd
000000d0: a124 ccbd 92dc c2bd b277 9dbd 8bd4 4d3c
000000e0: cf3b 92bd c7e2 c43c 3282 b73c 69cb d5bd
000000f0: 894e 35bd 0f3e 49bd 06d5 d6bc 5c41 4abd
00000100: 0781 edbc 7862 d3bb d622 adbc 26cd 90bd
00000110: 4ec5 45bd 749f 6abc d14b 32bd bcc0 edb9
00000120: ffc1 843c 5769 6a3d 2251 d7bd 3ad9 8bbd
00000130: 1609 87bd 1d5b 84bc 3767 48bd 4e93 aabc
00000140: 079d cd3b d7ff b13c 92d6 26bd 551f 6d3b
00000150: c139 56bd 73f3 323d afa9 063d 2906 843d
00000160: 348c 183d bd31 50bd 946e 643c 1033 1fbd
00000170: 0627 f43c c28f 643b ef7d 31bd 5cdb e13c
00000180: da7f c0bd 119b 86bd 840a bbbc f101 bdbd
00000190: 38ed 143d 47a0 67bd e385 db3c 92cc 563d
000001a0: e8cf 4e3e 4d48 833d 5c5e 47bc f3c8 0dbe
000001b0: 6dcb 58be a525 1bbc cfcd 0b3e 9e2f 34bd
000001c0: ed0c b3bd 06c0 15be ef52 cbbb f719 c93c
000001d0: 4c9d 0abd 3961 2bbd 241c c7bc efef 0d3d
000001e0: 8889 17bd 8763 dabc 73c2 e43d 98f8 ef3d
000001f0: d60f 953d 43b7 73bd 2c76 d23c c28a b63c
00000200: cd20 113d 6498 863d 799f 32bd 9fce 2fbc
00000210: 4372 af3c 27d3 e73c c187 dc3c 66a2 1fbd
00000220: 9ca5 773d da1b 093c a6bc 553b 5002 713c
00000230: 1115 613d 13fb 963d 8f50 ff3c 09a3 e7ba
00000240: 84a8 ecbc b02e 483d 9d18 363d a255 fa3b
00000250: 8a79 e1bb 4c44 c13b 56d9 54bb c4fe bf3c
00000260: 2ff5 a33c 17d6 1c3d 3c2a 813c 10cb 40bc
00000270: 3473 053d 3566 03bb b019 a63c 91d3 203d
00000280: ce2b c23c 831e aebb 97c6 883c 0f9b 043d
00000290: 2e15 a2bb b479 4ebc a190 89bc f479 abbc
000002a0: 6b4c ecbb c1ba cdbb 718a 163d d742 d83c
000002b0: b2ad 4ebc 3bf8 44bc b5e1 babc cd31 ce3a
000002c0: ad1f 4cbc f8f3 1b3d de37 dd3d 0c36 38bd
000002d0: 163e 693c 66eb 9fbc 3be6 12be f33a 78bd
000002e0: 89cb 373d 977d a5ba 1f8f f8bd fa79 4cbe
000002f0: 0456 5cbd 81ba 593d b34f bd3c 782a f0bd
00000300: 5c77 dabc 1925 ca3d b9e5 a0bc b2ea 1abd
00000310: c8f0 6fbd a627 163d 443f 2f3c ce3f 17bd
00000320: 94d6 b6bd a4df 833b 4210 fe3b bf30 9c3d
00000330: b625 efbd 9322 2cbd bc15 a2bd b736 a8bd
00000340: 6bd8 d33c 6bdc b03d 3a26 dcbd ad05 9a3e
00000350: 6822 093e 841e 58be 1dae 913c 5f74 0fbd
00000360: bdab 173e 1b43 c83d 5aad d3bd 5744 973d
00000370: 2135 01bd e387 febd bbee 0bbe db53 ab3c
00000380: 0956 47bd 73c8 923d c7c5 edbd c6c3 0fbe
00000390: be81 adbd d478 043d 45fa 4f3d ddec e9bd
000003a0: ad8f a3bc c8ed 063d 9114 1bbc 50e0 c4bc
000003b0: b189 4f3d 1d83 3b3e a053 303e 6b35 01bc
000003c0: ed43 a1bb 93fe d73d bace fc3d 0433 353b
000003d0: 188c 3fbd 2e0c 70bc 6e60 4ebd f65b 9abd
000003e0: cdd2 a8bd 6f93 13bb a8f3 0d3d 81f4 58bb
000003f0: 026c 38bc 0492 153c 2920 74bc 14bb 513c
