model .onnx (onnx, 38416 bytes, 5 tensors)

conv1.weight f4 [64, 1, 9, 9]
00000000: 9f2c 5d3c 0890 8abc b8a1 5bbd e714 ce3d
00000010: 15f5 943c d3d1 2abd 60ab 983d 6038 64bd
00000020: 9193 553d 1ba8 483d 0779 33bd a5aa c7bd
00000030: 8130 91bd 0d36 ccbd e2cc e13c 079d 223c
00000040: 6c12 4fbd defe 83bd b7c0 82bd bb7e 793d
00000050: 85c2 cf3d 046f 173c e81e 0f3d 6535 8abc
00000060: 70a9 d93d 349e 3abd 3917 69bd 6d07 813d
00000070: ef0e c43d aea1 d2bc 06ef a4bd 6719 3d3d
00000080: 2350 9cbd d0ee 0bbd 36d8 c8bb 3398 a33d
00000090: 183f 1d3d aaca e23d 55b8 6b3d 1fae 9f3d
000000a0: 9366 533d 1d0a 95bd 5465 72bc fa8c 903d
000000b0: 8fea dd3d fd0d cfbc 950c b2bd 4393 e93d
000000c0: 53b4 303d b844 a63d 83ba f73b 4054 0e3d
000000d0: 13b1 a33b 128e 4d3c a76b ac3d ec53 19bd
000000e0: 3363 463d 6b4b cabc c010 a4bd 09b6 943c
000000f0: 6757 ba3d b0ad 1d3c a3eb 82bc 7dd3 a93d
00000100: 3c8c 2abc 9a5f c83d c9cb d93d 95f5 cdbd
00000110: 5554 20bd a4a2 463d 6152 6b3c 883b a9bd
00000120: 0080 65bd 3efe bcbd f072 e43d 2608 a1bd
00000130: f201 b4bd b50f 96bd ff10 7a3d d629 403d
00000140: a7f5 6abd d0f5 e6bd f599 a83d 68ca 7d3d
00000150: 0c4b cbbd f920 6cbc 0088 a73d b4f0 e8bd
00000160: 303c d13b 4b20 bfbb 9a2d eebd f26b 253d
00000170: 6348 be3d 8e2e f6bd ff8f bebd 49a7 68bd
00000180: 9ca7 6fbd dd95 bc3d b77c 233c 9491 e9bd
00000190: 23c0 b93c b279 543c a99a 1bbd 5c28 e7bc
000001a0: 15ad fe3c e78d d2bd bcae c2bd c8d2 8c3c
000001b0: ec0e 683d 8aec dfbc aee7 6ebd 3504 d93c
000001c0: a71a a13d f2ad f2bd 2cbe d7bd 5b24 f1bc
000001d0: cb9a bd3d 6d4f a3bc 7ef6 0c3d 2217 94bd
000001e0: fada 6f3d e128 643c aae3 a8bd 5a49 9fbd
000001f0: 6caa a43d ce6d d03d 7ab0 cb3d 533e 683a
00000200: a4d4 dbbd 0524 b03d 3eca c33d 6cb1 8fbd
00000210: 0ef2 89bd fdb4 4bbd eec9 debd 142d d3bc
00000220: 0e6f c1bd d7bf 7fbc 213a c33d 23ec 83bb
00000230: c59f 1f3d b7ee 763c c40c e1bd b4f7 403d
00000240: f069 9a3d 983a a3bd d754 ad3d 95ee 81bd
00000250: 24ec 56bd 964e 9ebd ac96 f4bd 8639 18bd
00000260: a2fc a7bd ab60 623d 501b e5bb bf92 a2bc
00000270: cb25 9bbd 8095 2e3d b1a5 043c 93c0 a83d
00000280: 2a50 3c3d 87f4 d13d 2890 ec3d ca7d 87bc
00000290: 7e76 79bb 5dbf 84bd 02f7 c7bd 67c1 bfbd
000002a0: 0278 f1bb 614c 5dbd 03d7 913d 8d0f 68bc
000002b0: b2ca b0bd d511 a33c cb1c ce3d 74d9 b93d
000002c0: 2c2d 14bd 4c17 30bd cff4 353b 4a89 47bd
000002d0: 523d 90bc c2b9 ee3c 878b 8fba c1db 00bd
000002e0: d26c 33bd 80b2 b8bd 4455 db3d 102a d0bd
000002f0: 68b1 023c 0dd2 4fbc 6eea 8c3d 2837 71bd
00000300: c51d b3bd b55a 423d 5f00 a83d 2577 e93d
00000310: 7189 9c3d 13d1 7b3d 2920 c13d 5d37 c2bd
00000320: 677d 15bd 2963 8dbd 3f1a 203d 0590 833d
00000330: bf6b c53c d3df 18bd 1841 b0bd 2f5b d33d
00000340: fe29 fa3b 18e8 6bbd 02a6 f6bb 729e b33d
00000350: 59a8 583b 1f06 f8bc cd72 b13d 1670 c4bd
00000360: e2eb cf3d 8e9e a5bc 0cce a8bd e6bb a13d
00000370: 2edd a73d 9238 403d 59a7 343d 08fb 36bd
00000380: 1b8d b33d 329b 89bd 7878 85bd bc33 b3bc
00000390: c9be 043b f3b4 59bc 7c46 073d cb24 85bd
000003a0: 2888 edbc b2ca 64bd 5291 b1bd 9688 773d
000003b0: 6f40 a4bd ee34 583b 2f65 783d 08c0 bb3d
000003c0: ba55 dd3d 24b7 813d c24f b13d 92d7 41bd
000003d0: 530c abbd b1d6 b83d a9bc adbc 3901 9c3c
000003e0: e10d d3bd 1702 f53c cfec 14bc 3d8b 14bd
000003f0: 517a a13d 28ef 57bd 0577 0a3d a06f 86bd
0.013499408 -0.016914383 -0.053621024 0.100625806 0.01818327 -0.04170401 0.07454562 -0.055717826
0.052142683 0.048988443 -0.043816593 -0.09749345 -0.070893295 -0.09971247 0.027563516 0.009925134
-0.050554678 -0.064450964 -0.06384414 0.060911875 0.101445235 0.009242777 0.034941584 -0.016871164
0.10628021 -0.04556103 -0.056906912 0.063002445 0.09573161 -0.02571186 -0.080534026 0.046166804
-0.07632472 -0.034163296 -0.00612929 0.07988014 0.03839025 0.11073811 0.05754884 0.07796883
0.051611494 -0.072773196 -0.014794666 0.07058139 0.10835754 -0.025275225 -0.08693806 0.11405041
0.04314072 0.08118576 0.0075600757 0.034748316 0.004995474 0.012546079 0.084189706 -0.03743355
0.048434447 -0.024694165 -0.08011007 0.018153207 0.09098702 0.00962393 -0.015981501 0.08292291
-0.010409411 0.097838596 0.10634572 -0.10056607 -0.039142925 0.04849495 0.014362902 -0.08263308
-0.056030273 -0.0922818 0.11154735 -0.07862882 -0.087894335 -0.07327215 0.061051365 0.046914898
-0.05736318 -0.11277354 0.0823249 0.061960608 -0.099264234 -0.014412158 0.08180237 -0.113740355
0.0063853487 -0.005832707 -0.116297916 0.040386148 0.092911504 -0.12020598 -0.09304809 -0.05680016
-0.058509454 0.09208272 0.009978465 -0.1140472 0.022674626 0.012968468 -0.037989292 -0.028217487
0.031088391 -0.10280972 -0.09505984 0.017190352 0.056654856 -0.02733447 -0.058326416 0.026491264
0.07866412 -0.11849584 -0.10534319 -0.029436281 0.0925804 -0.019935334 0.03441476 -0.07230975
0.05855844 0.013925762 -0.082465485 -0.077776626 0.08040318 0.101771936 0.099457696 0.00088593847
-0.10733917 0.0860062 0.09560059 -0.070162624 -0.067356214 -0.04973315 -0.10878359 -0.02577833
-0.0944501 -0.015609703 0.095325716 -0.0040259524 0.038970727 0.0150715625 -0.10988763 0.047111228
0.07539737 -0.0797016 0.084634475 -0.06344334 -0.052471295 -0.07729833 -0.11942801 -0.037164234
-0.08202483 0.05526797 -0.0069917813 -0.019845365 -0.07575568 0.042623043 0.008096145 0.082398556
0.045974888 0.10251718 0.11550933 -0.016539473 -0.0038065012 -0.06481812 -0.0976391 -0.093630604
-0.0073690424 -0.05402792 0.07121088 -0.014163864 -0.08632411 0.019905964 0.100640856 0.09074679
-0.03617589 -0.042990968 0.0027764325 -0.048714913 -0.017607365 0.02914131 -0.0010951617 -0.031459574
-0.04380495 -0.09018421 0.107096225 -0.10164273 0.007976867 -0.012684357 0.068806514 -0.05889049
-0.087459125 0.047449786 0.08203196 0.11399678 0.07643402 0.061478686 0.09429962 -0.09483216
-0.036496546 -0.06903679 0.03908753 0.06423954 0.024099229 -0.03732283 -0.08606166 0.10320126
0.0076344004 -0.05759439 -0.007527114 0.087704554 0.0033059327 -0.030276356 0.08664475 -0.09591691
0.10152413 -0.020217206 -0.08242425 0.07897167 0.081964836 0.04692895 0.044104908 -0.044672996
0.08767148 -0.06719054 -0.06517118 -0.021875255 0.0020255318 -0.013287771 0.033026204 -0.06501158
-0.028995588 -0.055857368 -0.08670296 0.060432993 -0.08020102 0.0032990533 0.06064337 0.091674864
0.10807367 0.063337594 0.08657791 -0.047324724 -0.0835196 0.09025324 -0.021208124 0.019043552
-0.103053816 0.029908223 -0.009089663 -0.0362656 0.07884658 -0.05271831 0.033804912 -0.065642595

conv1.bias f4 [64]
00000000: 6e85 5bbd a61b be3d ef8f 133d cddb 9bbd
00000010: f93c e5bc 8e79 a6bc e968 a0bc cb3b a23e
00000020: 178f 8f3c 2caa c03c 7c59 8bbd 2251 533e
00000030: a3d5 273d 6703 18bd 3929 5abd ed92 483d
00000040: 8ebd ff3c 1334 863d 38f3 d6bd 39a7 963d
00000050: 8f49 cf3d 90a1 7e3d 2db1 e1bd ab60 93bd
00000060: 241f d3bd 8695 bc3d ea8a d7bd 69c9 85bd
00000070: 66e0 b1bd c165 e0bd f6cb 8b3d 4717 c7bb
00000080: 9dae 093d fbbd 1f3d 0e6c cdbc acf6 883d
00000090: d666 c83d 9fdb fa3c cdab 21bd 89b2 273d
000000a0: 5e95 863d d433 e2bd 5e36 fd3b 6171 283b
000000b0: 3e41 9bbc b184 283d 1a11 e0bd 858d c9bc
000000c0: b8c1 b23d ec6a c93c 1ba4 923d 010d 4f3d
000000d0: fdb7 213d ceb9 a23d 6197 3a3d 2cff 833d
000000e0: 882c 20bd d2cc d1bd f681 723d 9f21 c33d
000000f0: b6a9 67bd 5849 b23d ccfb b5bc 4431 9dbd
-0.053594045 0.09282617 0.036025938 -0.07610283 -0.027983176 -0.020321634 -0.019581275 0.31686243
0.017524285 0.023518644 -0.06804177 0.20636418 0.040975224 -0.03711262 -0.05326197 0.048968244
0.031218316 0.06552901 -0.10495609 0.07356114 0.10121452 0.062165797 -0.11020122 -0.07196172
-0.10308674 0.09208207 -0.10524543 -0.065325566 -0.08685379 -0.10956908 0.06826012 -0.006075773
0.03361379 0.03899954 -0.025075939 0.06687674 0.097852394 0.030622302 -0.039470483 0.04094175
0.06571458 -0.11045042 0.0077274283 0.0025702345 -0.018952008 0.04114217 -0.10940762 -0.024603615
0.08728355 0.024587117 0.07160207 0.05054951 0.039482106 0.07945596 0.045554522 0.064451545
-0.03910497 -0.102441445 0.05920597 0.09527897 -0.056558333 0.087053955 -0.022214793 -0.07675412

conv2.weight f4 [32, 64, 1, 1]
00000000: b405 26bd 4f90 a43d add2 a83d 27f6 0ebe
00000010: 8afe c33d 9646 cdbc 5314 a8bd d52d 823e
00000020: c493 453e 72bc edbc cc85 663e 6b46 10be
00000030: af72 01bd f376 663d cbfa 8b3d 36c7 f83c
00000040: 054e 4e3d 43d9 8fbd 393d edbd cd13 d9bd
00000050: 8206 a63c 6b77 653d 7ef3 94bd 57a5 a9bc
00000060: 8c59 29bd a039 2f3d 87d6 093e c50c a53d
00000070: 6277 d13d 19a9 ca3d dced 46bd 29ef b0bd
00000080: 9fde 8cbb 3c66 28be 4043 b33b 0100 b2bd
00000090: 9ad2 883d d84f 97bd 787b cebc ae69 36be
000000a0: 38dd 963b 85eb e43d f3c4 debd ee36 dcbd
000000b0: 8b25 963d 0cfe 403d 1d63 bfbd 9486 1fbd
000000c0: c318 0f3e 8803 bb3c 1bbf 56bd 6450 b43d
000000d0: 178f 113c 3ef5 1abe 5b3d 313e 3e79 8bbd
000000e0: 1e90 123e aa2a fa3d 6441 ec3c caf0 a33d
000000f0: 7d10 1dbd e89d 88bd 9933 f23e 58b3 e43c
00000100: ac59 0d3d 8a9c 67be 5fee b3bd 19cf 92bd
00000110: e2aa be3d f3a7 883d 5a67 a43d 8171 c03c
00000120: 3db9 6f3c 22b2 f83d d7c8 41be f4ff 2c3d
00000130: b9d9 adbd d6d1 9e3d 1a00 f73c 8ed3 66bd
00000140: 2fd2 d93e 9aa9 993d e5cb ae3d dd58 983e
00000150: 75c7 fcbc eac9 7b3e d06b 7a3c 0d02 ca3d
00000160: 58e8 fc3d f915 a0bd 8f25 d0bd 4bf1 4f3d
00000170: d09a 6cbd f042 eebd 8ac5 ccbd a2be 093d
00000180: 70b2 8e3c 9b3c d93d 508b e03c 83e7 863d
00000190: 20ee 92bb eda8 c0bd 0c7e da3d 8d36 01bd
000001a0: 9d22 dfbd c72d f4bb bc72 35be 3441 ddbd
000001b0: 89aa c4bc 24e0 b5bb 2ee4 9d3d f372 813c
000001c0: 1070 073b 7c2d ba3e 26e2 703d 5f1a f9be
000001d0: 4bfa 8abe 4f16 ba3d a0ba 7fbc ddfa efba
000001e0: 7738 bbbd 4cba e3bd 3ea6 16be f622 0bbd
000001f0: 22a0 073d 9409 33be 9836 27be 3833 cdbc
00000200: 4ba3 c53d 0f95 39bc ce26 d03b 30d5 21bd
00000210: 9020 9ebd 9dc5 ef3d f62d edbc 52af 26bc
00000220: 7204 cb3d 6ad0 2f3d aaee 093e 5f17 24bd
00000230: a323 f83d 9028 9e3d fb19 893d b05a 00be
00000240: 1715 b73d 4b51 13bd f419 0bbc c834 9fbd
00000250: 8073 73bd 6425 443c 0098 3c3a 4609 82bd
00000260: b038 04bd c001 d93d c866 18be 4be3 963d
00000270: 7d5c e8bd 99b1 703d bdee 683d 466f c0bd
00000280: 7e70 e0bd 1fa8 103d 60d7 f63c ef77 ef3d
00000290: 8b2d 01bd 8997 b73d 5fac 33bd 03fb ea3c
000002a0: d2c4 023e e489 713d c0e6 95bd 90c9 153d
000002b0: 1581 6c3d a37b 933b 0e1c 26bb ae64 96bd
000002c0: cf54 76bd 8b69 e03d 64d7 e0bd e501 fbbd
000002d0: 8a9e 853d cfa6 b4bd bdf6 a93b ca4c ffbb
000002e0: 0b3b a0bd 8085 7d3d d10d cebc fd8c 98bd
000002f0: 431c eabd f237 f2bd f9ed 2fbe 10cc 0dbd
00000300: cacc 863d 37ac 98bd ea38 053e 5450 463e
00000310: c064 cbbd 7d0f 4bbd c20f c63d 425f 20bf
00000320: b4de 81be ea38 ac3d 07d9 33be 3759 993d
00000330: 9a72 d0bc b879 ce3d 1c4c 8ebd 107e 15be
00000340: 428b b4be 6d94 b1bd dd34 d2bb a5a5 123f
00000350: 6a60 92bd 99c9 593e 92c8 c1bd f6eb 92bc
00000360: d47a 6d3d ed9f ecbb 5c63 0bbf 21a5 83bb
00000370: 9dee f23d 7c98 cf3d 830b c23c 9873 01be
00000380: d0b3 93bd d3ff 1a3e e635 a73d dce8 0b3e
00000390: 21dd 0d3e c3e5 d0bd e062 72bc 4d49 8f3d
000003a0: 2335 273e 2461 96be 6be9 a0be 05ca 113d
000003b0: 17b4 d53d 2b03 833c aa43 d9bd be31 adbd
000003c0: 7a75 89bd 8ac8 1b3e af26 39bd 1c22 e2be
000003d0: fdbb 863e 64f6 1f3e ce34 dbbd eb47 843b
000003e0: 6c67 56bf 50a0 8e3c c18a febd a457 bf3d
000003f0: 9c60 12be 8d44 1a3f ec24 d7bd b43d a1bd
-0.040532783 0.08035337 0.08243308 -0.13961087 0.09570034 -0.025058072 -0.082070015 0.25425592
0.1929465 -0.029020522 0.22511977 -0.14089362 -0.03160351 0.056265783 0.06834944 0.030368429
0.050367374 -0.07023861 -0.11583943 -0.1059948 0.020266775 0.05602209 -0.07273005 -0.020708723
-0.041345164 0.042779565 0.13460742 0.08059076 0.102278486 0.09895534 -0.048566684 -0.08639366
-0.0042989994 -0.1644525 0.0054706633 -0.08691407 0.06680794 -0.07388276 -0.025205359 -0.17813751
0.004604008 0.11177734 -0.10877409 -0.107526645 0.073313795 0.047117278 -0.09345076 -0.038946703
0.1397429 0.022828832 -0.052428346 0.08804396 0.008884213 -0.15132615 0.17308562 -0.068102345
0.14312789 0.12215169 0.028839774 0.08004911 -0.038345803 -0.06670743 0.4730499 0.027917549
0.034509346 -0.22618309 -0.087857 -0.07168407 0.09309937 0.06672659 0.08027525 0.023491623
0.014631567 0.12143351 -0.1892427 0.042236283 -0.08488793 0.07754867 0.030151416 -0.056354098
0.4254317 0.07503052 0.085349835 0.29755297 -0.030856827 0.24588743 0.015284494 0.098636724
0.123490036 -0.07816691 -0.10163414 0.050767224 -0.05776483 -0.11633861 -0.09998615 0.033629067
0.01741907 0.10607263 0.02741018 0.06587126 -0.004483953 -0.0940722 0.10668573 -0.031546164
-0.10895274 -0.007451746 -0.17719549 -0.10803452 -0.024007099 -0.0055504013 0.077095374 0.015801882
0.002066616 0.36362827 0.058809422 -0.48652932 -0.27144083 0.09086286 -0.01560846 -0.0018309016
-0.09141629 -0.11119518 -0.14711854 -0.03396889 0.0331117 -0.17484123 -0.1632942 -0.025048837
0.09650286 -0.011327042 0.006352282 -0.039509952 -0.077210546 0.117076136 -0.02895258 -0.010173636
0.09912957 0.04292337 0.1346995 -0.04006135 0.12116172 0.077225804 0.066944085 -0.12534595
0.089395694 -0.0359662 -0.008490074 -0.07773739 -0.05943632 0.011971805 0.00071942806 -0.06349425
-0.032280624 0.10596037 -0.14882958 0.073675714 -0.11345766 0.05876312 0.056868304 -0.09396224
-0.10958956 0.035316583 0.030131996 0.116927974 -0.031537574 0.0896445 -0.043865558 0.028684145
0.12770393 0.058969393 -0.07319403 0.036569178 0.05774029 0.0045008226 -0.0025346312 -0.07343422
-0.060139474 0.10957631 -0.109785825 -0.12256221 0.065243796 -0.08820879 0.005186884 -0.0077911364
-0.078237616 0.061894894 -0.025153073 -0.074487664 -0.11431172 -0.11827077 -0.17180623 -0.034618437
0.06582029 -0.074547224 0.13009992 0.1936658 -0.09931326 -0.049575318 0.09670974 -0.6264535
-0.25365222 0.08409293 -0.17563258 0.074877195 -0.025445271 0.1008181 -0.069481105 -0.1459887
-0.35262495 -0.08670888 -0.006414993 0.57284003 -0.07147296 0.2126831 -0.09462084 -0.01793478
0.057978466 -0.007221213 -0.54448485 -0.0040174876 0.11861918 0.10136506 0.02368713 -0.12641752
-0.07212031 0.15136652 0.08164577 0.13663048 0.13853885 -0.102000736 -0.014794081 0.06996403
0.16328864 -0.29370987 -0.31428084 0.03559305 0.1043474 0.015992722 -0.10608609 -0.08456753
-0.0671186 0.15213218 -0.045202907 -0.44166648 0.263153 0.15621334 -0.10703431 0.0040368936
-0.8375156 0.017410427 -0.12428809 0.09342888 -0.14294666 0.6026085 -0.10505089 -0.07873097

conv2.bias f4 [32]
00000000: edd7 ac3d c4ea e2bb f83c 1e38 c465 25bd
00000010: 7e51 653d 80ec d5bd 1b8b acbd a331 a7bd
00000020: 8a37 863d 55b5 79bd 0b76 2c3d 216f c4bd
00000030: 1860 5e3d f002 bbbb b109 26bd e7e4 edbd
00000040: 9b5c 2c3d 804a 2f3d 5809 ccbd 88c3 39bd
00000050: 821d c93d 07c5 cfbc d4ad c1bc de3b 903d
00000060: 2617 c03d 42b6 86bd 6647 94bd bdff 7b3d
00000070: 4069 a73d b10e 90bd d948 6a3d 26a2 9f3d
0.08439622 -0.006924959 3.7726917e-05 -0.040380254 0.05598592 -0.104454994 -0.0842497 -0.08163764
0.06553562 -0.060963947 0.042104762 -0.09591509 0.05429086 -0.0057071373 -0.040536586 -0.11615925
0.042080503 0.042795658 -0.0996272 -0.04535249 0.09820081 -0.025362505 -0.023642458 0.07042669
0.09379415 -0.06577732 -0.07240181 0.061523188 0.08174372 -0.07034052 0.05719838 0.07794599

conv3.weight f4 [1, 32, 5, 5]
00000000: 32da a5bb 81be 46bd ce56 91bc 8b4f 08ba
00000010: 8c54 88bc 06a1 7bbd 5350 eebb 2b28 96ba
00000020: 354b d1bc 9ab6 24bd 5808 c1bc af2a 74bd
00000030: 6027 393a 8c5b c1bb 1259 0f3d 4158 37bd
00000040: e047 75bc 1e85 38bc efc9 093c c0b5 e23b
00000050: 0625 0b3d 00c3 80bb 72db 88bc be8c 753c
00000060: 54fe c33c 0789 57bd 56ee 2ebd 848c db3c
00000070: e843 d0bc c32c 49bc a374 6fba 6a03 253d
00000080: a85e a33c 9b6a 153b ccd3 613c d1cc 37bd
00000090: add9 903b 0dea 043c 8e66 d33c e060 963b
000000a0: a4ea 91bc 6262 343d bc54 333d acf9 443d
000000b0: 3db0 aa3c 424e 72bc 63e0 ac3a 5fbe 413d
000000c0: d697 3d3d c505 1dbd 70e7 3b3c 9e36 79bc
000000d0: 506b 28bc ade0 3ebc da51 c3ba 18c3 07bc
000000e0: 1aad b4bc 2552 5fbb 65b0 c53c 3ea5 ee3c
000000f0: 7be9 bd3a 5319 bd3c 99e9 7d3c 6ff5 113d
00000100: 4677 41bc 4af4 ccbc 7f60 f83b eb6a 2a3d
00000110: 5c0d e93c fdf3 093d 289c 06bc 541f 8dbb
00000120: 808f e93b 545b ba3c a7ee afbc 0834 71bd
00000130: 9370 1fbd a7b1 30bd fb20 45bc ca0a cabc
00000140: 579c 1f3c 968a 8f3d 201d de3d 4500 903c
00000150: 989a ffbc 3396 21bb 3992 c23d fdc9 d73d
00000160: 6785 443d 8b25 7fbd 979e 2b3c e1dd 953d
00000170: 9d48 903d fc2a 493b 795b 49bd 1b30 ebbd
00000180: 74ee 81bd e84b 85bd 013d 77bc fcec 33bd
00000190: 3224 6abc ab99 b4bc bc6f 98bc 5828 8ebc
000001a0: 2060 cfbc e9f4 303c 9487 c83b f5d5 e43c
000001b0: 4691 d0bc 6c97 703a dc85 1c3b 8619 2e3d
000001c0: a3d1 ca3b cd89 ea3c 986e 74bc 2457 cf3c
000001d0: 9d95 db3c 2f8c 95bc 879f 87bc 9cca e1bc
000001e0: 7264 cf3c ae36 8b3c bb4a 9f3b 187e 063c
000001f0: 9964 ffbb 5957 bebc 3511 d2bc dbab 223c
00000200: 7690 cdbc c0fd c7bb aeb0 d6bc 0521 fdbc
00000210: 3cec 033d 47ff 95bc 6c90 b3bc 8151 363b
00000220: 3ed8 623c 4f92 243c ac5b bc3c f379 023d
00000230: 4d75 c0bc 0d47 bfbc a41c 0abd a7ce f8bc
00000240: f843 043d 7a41 303c 2ddf 1e3c 2381 e33c
00000250: b1b9 013d d818 71bc ab1b 273d 9ea7 273c
00000260: 5a57 bebc 2668 4a3c c07e 5cb9 ef06 b73c
00000270: 8968 0f3c ea14 e1bc a9b2 973c 6a28 0fbc
00000280: fa42 113d bf03 04bd df0b 873c fca7 f93c
00000290: df62 3ebc 66e7 c9bc 70a4 bfbc 4ff5 463c
000002a0: 8faa 0c3a 884f db3c 66cc e1bc 0902 ce3c
000002b0: 139c b43b 7d7d fb3c 55d3 013d 2a29 90bc
000002c0: 73c7 4a3a 90f4 dfbc b2cb 7d3c e230 ed3b
000002d0: 27df 123d caa6 8aba 692b 663c d96e 98bc
000002e0: 854b f93c ef4d bebc 6e37 003d 80fe 013d
000002f0: dce6 443d 778b 013d ca45 a3bb ee99 b7bb
00000300: 820b 2d3d 5de1 183d 5e83 a4bc 21c6 303c
00000310: 1868 9a3b 673b 493a dc92 9cbb 86e6 9fbc
00000320: 1b73 bc3c 26ff 7abc 5fc5 1cbd 3ef0 b5bc
00000330: 7ea5 babb 520f 4abc 0dec 85bc 49fc b4bc
00000340: 4d8b 8fbc 401b 0bbb f1eb 8fbc ee38 abbc
00000350: e2d1 013d b127 103d 0234 ba3b ff4b aa3c
00000360: fdf9 e9bc 2a9e ac3c 875a 183d 7ac3 143d
00000370: b0c3 9cbc 8aa9 923c a172 273d b469 9f3c
00000380: 1767 713c caca bebc 7710 143d 632d 213b
00000390: 3228 033d eab9 be3c d437 2bbc 6de4 083d
000003a0: 2513 8dbc 97da 85bc e999 113d 34c1 f73c
000003b0: 5d18 d0bb 545b 9f3c 7a4d 70bc aee6 72bc
000003c0: 71b3 f3bb 1490 973c df6e 9ebc d948 b13c
000003d0: d7eb 6e3b 6c79 463c 984b 41bc 2287 913c
000003e0: 1000 0c3d 3d86 0c3d 2382 03bd b5bd ce3c
000003f0: 02b6 483c 2c26 c83b 5c89 f53c 2370 8dba
-0.0050614113 -0.048521522 -0.017741587 -0.0005199841 -0.016641878 -0.06143286 -0.007272759 -0.0011456063
-0.025548557 -0.040213205 -0.023563549 -0.05961102 0.0007063057 -0.005900806 0.034997053 -0.0447619
-0.01497075 -0.011262206 0.008409961 0.006918639 0.033970855 -0.003929496 -0.016706202 0.014987169
0.023924984 -0.052620914 -0.042707764 0.026800402 -0.025423005 -0.012278738 -0.00091345067 0.04028646
0.019942597 0.0022799138 0.0137834065 -0.044873063 0.00442048 0.008112443 0.025805738 0.004589185
-0.01781208 0.044039138 0.04378198 0.04808967 0.02083599 -0.014789166 0.0013189431 0.047300693
0.04628738 -0.03833558 0.011468753 -0.015210776 -0.010279492 -0.011650247 -0.0014901713 -0.00828626
-0.022055198 -0.0034076062 0.024131963 0.029131528 0.0014489138 0.023083365 0.015497589 0.035634454
-0.011808222 -0.02501883 0.0075798626 0.04160587 0.028448753 0.03367995 -0.0082159415 -0.004306713
0.0071277022 0.022748627 -0.021476103 -0.05888751 -0.03892572 -0.043138172 -0.012031789 -0.024663348
0.009741864 0.07008855 0.10845399 0.017578254 -0.031201646 -0.0024656176 0.09500546 0.10536573
0.047978785 -0.062291663 0.0104748225 0.07317711 0.070451 0.0030695787 -0.0491595 -0.11483785
-0.063443094 -0.065086186 -0.015090228 -0.043927178 -0.014290856 -0.02204593 -0.018607967 -0.017353222
-0.02531439 0.010800579 0.006119678 0.027934054 -0.025459897 0.0009177837 0.0023883497 0.04250481
0.0061895414 0.028630162 -0.014918946 0.025310107 0.02680474 -0.018255321 -0.01655556 -0.027562432
0.02531645 0.016993847 0.0048612035 0.008208774 -0.0077939746 -0.02323501 -0.02564297 0.009928669
-0.025093298 -0.0061032474 -0.026207294 -0.030899534 0.032207713 -0.018310202 -0.021919452 0.0027819576
0.0138455015 0.010044648 0.022992931 0.03185458 -0.023493433 -0.02334931 -0.03371872 -0.030371977
0.032291383 0.010757798 0.009696764 0.027771538 0.03167123 -0.014715396 0.04079787 0.010232834
-0.023235012 0.0123539325 -0.00021028053 0.022342173 0.0087529505 -0.027475793 0.018517809 -0.008737663
0.035464264 -0.032230135 0.016485153 0.030475609 -0.011620252 -0.024646472 -0.02339384 0.012143447
0.00053659914 0.026771322 -0.027563285 0.025147455 0.0055117696 0.030699486 0.031695683 -0.017597754
0.0007735409 -0.027338296 0.015490459 0.0072384933 0.035857346 -0.0010578271 0.014048436 -0.018607544
0.030431518 -0.023230521 0.031302862 0.03173685 0.048071727 0.031627145 -0.0049826847 -0.0056030666
0.042247303 0.0373243 -0.020082172 0.010789425 0.004712116 0.0007676393 -0.004778249 -0.019519102
0.023004105 -0.015319621 -0.038274165 -0.022209283 -0.0056959977 -0.012332754 -0.01634791 -0.022092955
-0.017522478 -0.002122596 -0.01756856 -0.02090117 0.0316943 0.035194103 0.0056824693 0.02078819
-0.028561587 0.021071512 0.03719571 0.036319233 -0.01913628 0.017903108 0.040880803 0.019459583
0.014734051 -0.023290057 0.036148515 0.0024593703 0.032020755 0.02328201 -0.010450322 0.03342097
-0.017221043 -0.016339583 0.03554717 0.030243494 -0.0063505606 0.019452728 -0.014666909 -0.014825506
-0.0074371626 0.018501319 -0.019339977 0.021641182 0.003645649 0.01211391 -0.011797808 0.017764632
0.034179747 0.034307707 -0.03210653 0.025236944 0.012250425 0.006108066 0.029972725 -0.0010790866
