model.onnx (onnx, 33598 bytes, 5 tensors)

conv1.weight f4 [64, 1, 9, 9]
0	0x3d609449	0.054828916
1	0x3dc82bc3	0.09773972
2	0xbba2f800	-0.0049734116
3	0xbde251dd	-0.110507704
4	0xbc1f8001	-0.009735108
5	0x3d13038e	0.035892062
6	0xbc98d8a4	-0.01865799
7	0x3ce202f9	0.027589308
8	0x3e0f2e00	0.13982391
9	0xbbc5ee37	-0.0060403603
10	0x3e0f9358	0.14021051
11	0xbe04ea38	-0.12979972
12	0xbd9a07e1	-0.07521034
13	0xbe2f8ca0	-0.17143488
14	0x3c9c1ef9	0.019057738
15	0xbd8e0103	-0.06933787
16	0xbe0068e6	-0.12540016
17	0xbe113bf8	-0.14183033
18	0xbd65389c	-0.05596219
19	0x3c71256e	0.014718397
20	0xbe15fdd1	-0.14647605
21	0xbdb55638	-0.088543355
22	0x3cccbfe9	0.024993854
23	0xbd8527bc	-0.06501719
24	0xbd467611	-0.04845244
25	0xbdd92613	-0.10602965
26	0xbc106693	-0.008813518
27	0x3d88ab03	0.06673243
28	0x3db172c8	0.08664471
29	0x3d1d1fb5	0.038360316
30	0x3db71b69	0.08940775
31	0x3daa76fb	0.08323475
32	0x3da893c1	0.08231307
33	0x3da00b3d	0.078146435
34	0xbca5b553	-0.020228064
35	0xbd2adc77	-0.041714158
36	0x3d4b9f7e	0.04971265
37	0x3c431768	0.011907436
38	0x3d963e4c	0.07336101
39	0xbd9aa35e	-0.07550691
40	0x3dd5d40d	0.10440836
41	0x3e163ad5	0.1467088
42	0x3deeb714	0.11656013
43	0x3c59dff2	0.013298022
44	0xbd3e1838	-0.046409816
45	0x3db4c5d6	0.08826797
46	0x3db209af	0.08693253
47	0xbda9f7cc	-0.08299217
48	0x3c8a5f18	0.016891047
49	0x3d8ebfa8	0.06970149
50	0x3c74c2fe	0.014939068
51	0x3e391ee4	0.1807819
52	0xbc958a5d	-0.018254453
53	0xbe291112	-0.16510418
54	0xbc06035e	-0.008179514
55	0xbdc12282	-0.0943041
56	0xbdc4bfb2	-0.096068755
57	0xbdbd32bb	-0.09238192
58	0xbe38052d	-0.17970724
59	0x3cd3388c	0.0257838
60	0x3dd6125b	0.1045272
61	0xbded5173	-0.11587801
62	0x3d658546	0.056035303
63	0x3e2835b3	0.16426735
64	0xbd8bee82	-0.06832601
65	0x3da966fa	0.08271594
66	0xbd1ad0cc	-0.03779678
67	0x3d878f07	0.06619077
68	0xbb6b24f7	-0.0035880187
69	0xbd3558cd	-0.04427414
70	0x3daed7ae	0.085372314
71	0xbd882ad6	-0.06648795
72	0x3d91c251	0.07117141
73	0xbc2e82d2	-0.010651307
74	0x3da19f42	0.07891704
75	0xbe115424	-0.14192253
76	0x3c9e275e	0.019305881
77	0x3cc6082f	0.024173824
78	0x3df6fedf	0.120603316
79	0xbd078eb8	-0.03309509
80	0xbccaf509	-0.024775045
81	0xbdcd800a	-0.10034187
82	0xbdadedb0	-0.08492601
83	0x3c9bb7f4	0.019008614
84	0xbd3c003c	-0.04589866
85	0x3d9dae6d	0.07699285
86	0x3df303be	0.11865948
87	0x3cd20d01	0.025640966
88	0x3d3c530c	0.045977637
89	0xbca05106	-0.019569885
90	0xbd8c13da	-0.06839724
91	0xbddd0ee2	-0.10793854
92	0xbd82535a	-0.06363554
93	0x3d30e0f2	0.043183275
94	0x3d8b6df0	0.06808078
95	0x3da1f386	0.079077765
96	0xbd7dded2	-0.061980076
97	0x3d23e8ba	0.040016867
98	0x3d19befb	0.03753565
99	0x3c42dc97	0.011893413
100	0x3d1b70d7	0.03794941
101	0xbd970c14	-0.073753506
102	0x3d71c064	0.05902137
103	0x3dfd9008	0.123809874
104	0xbd1f5db9	-0.03890774
105	0x3e3fcda2	0.18730786
106	0x3df950e7	0.12173634
107	0x3de1541f	0.11002373
108	0xbd02114e	-0.031754784
109	0x3d6270f0	0.055283487
110	0x3ddbd3e2	0.10733773
111	0x3d3f5884	0.046715274
112	0x3d689225	0.05678
113	0x3cff02eb	0.031129321
114	0x3d47305c	0.048630103
115	0xbcef5648	-0.029215947
116	0x3b8617c0	0.0040921867
117	0x3cf3e2d9	0.029771255
118	0xbbb8674c	-0.0056275483
119	0x3c4769f7	0.01217126
120	0x3c8c38d5	0.017116943
121	0x3d7361e6	0.059419535
122	0xbd2d9b59	-0.04238448
123	0xbda2d969	-0.07951624
124	0xbd38b078	-0.04509017
125	0xbd30c73e	-0.043158762
126	0xbaca607b	-0.001544013
127	0x3da2fb86	0.079581305
128	0x3d2d6f44	0.04234244
129	0xbc208c86	-0.009799128
130	0x3dac31e5	0.08407954
131	0xbdeed556	-0.11661784
132	0x3d724450	0.05914718
133	0xbcd58113	-0.026062524
134	0xbd50f55d	-0.051015247
135	0xbca8f4c6	-0.02062453
136	0xbd93aaef	-0.07210337
137	0x3e15dde9	0.14635433
138	0x3ced8385	0.028993377
139	0x3b9acfbb	0.0047244704
140	0x3deb23e6	0.114814565
141	0x3da53036	0.08065836
142	0xbd6f32eb	-0.05839817
143	0x3c18c8e9	0.009325244
144	0x3db4e1b6	0.088321134
145	0xbcb38ee8	-0.021918729
146	0xbd5ab678	-0.053396672
147	0xbdba34d6	-0.09092109
148	0xbcf61215	-0.030037919
149	0x3d7352b7	0.059405055
150	0x3ac44a8f	0.0014975833
151	0xbde3f86f	-0.11131369
152	0x3d5c969c	0.05385457
153	0xbc8dc589	-0.017306106
154	0xbd0565ca	-0.032567777
155	0xbd54d949	-0.05196503
156	0xbce5c71f	-0.02804905
157	0xbc5d8904	-0.013521437
158	0xbdcefc48	-0.101067126
159	0x3de293d1	0.1106335
160	0x3c9a420d	0.018830324
161	0xbd66fba5	-0.05639233
162	0xbc78e70e	-0.0151918065
163	0xbd6c5a07	-0.057703044
164	0xbcaa0bab	-0.020757517
165	0xbdc0fca5	-0.09423188
166	0x3d84e920	0.064897776
167	0x3d3880c7	0.045044687
168	0xbdb6dfd4	-0.089294106
169	0xbdbe9b7d	-0.09307001
170	0xbcb23400	-0.021753311
171	0xbda0d1ce	-0.07852517
172	0x3ddadf7b	0.10687157
173	0xbd9aab4b	-0.07552203
174	0xbd831459	-0.064003654
175	0xbdc33897	-0.09532278
176	0x3d9cbb32	0.07652892
177	0xbd4b92eb	-0.04970066
178	0xbc88301d	-0.016624505
179	0x3d467d00	0.048459053
180	0x3db58617	0.08863466
181	0xbdbb36e4	-0.09141329
182	0xbc85fe32	-0.016356561
183	0xbd9d0397	-0.076667
184	0x3d57e3f5	0.05270763
185	0xbd92a869	-0.07161028
186	0x3dcc6f32	0.09982146
187	0xbda172d5	-0.078832306
188	0xbd797feb	-0.060913008
189	0xbc2d39b9	-0.010572844
190	0xbdc4cbfd	-0.0960922
191	0x3ddf5d55	0.109064735
192	0x3d155fd5	0.036468346
193	0xbddb1f45	-0.106993236
194	0xbd801ace	-0.062551126
195	0x3d77b0a7	0.060471203
196	0x3c05351d	0.008130339
197	0x3dbd5159	0.092440315
198	0xbdb6f564	-0.08933523
199	0x3d310c2e	0.043224506
200	0xbd56d52e	-0.052449398
201	0xbbc5d08e	-0.0060368245
202	0x3bab61c7	0.005230162
203	0xbd376f4e	-0.044783883
204	0x3dd487a7	0.10377436
205	0xbdb0dea7	-0.086362176
206	0xbd30b747	-0.043143537
207	0xbc21e3e4	-0.0098809935
208	0xbd9c6340	-0.07636118
209	0x3d50ca00	0.050973892
210	0x3d216272	0.039400525
211	0x3dd52562	0.10407521
212	0x3d860d72	0.06545533
213	0x3d94bc8d	0.07262526
214	0x3d0565e0	0.03256786
215	0xbd2dcbdd	-0.042430747
216	0xbdbb59fb	-0.09148022
217	0xbca3eed5	-0.020011345
218	0xbddb77c9	-0.107162066
219	0xbcf53395	-0.029931823
220	0x3dd3ef45	0.103483714
221	0xbd283e2e	-0.041074924
222	0x3dc841ce	0.09778176
223	0xbb9bbd00	-0.004752755
224	0xbde2e84e	-0.11079465
225	0xbddeebb9	-0.10884804
226	0xbc8af395	-0.016961852
227	0x3d86d90d	0.06584368
228	0xbdaf8ca2	-0.085717455
229	0xbd59a18e	-0.053132586
230	0xbd1b746e	-0.037952833
231	0xbd44c1ae	-0.04803627
232	0xbdca9f72	-0.09893693
233	0x3d83cf24	0.06435993
234	0xbd97598e	-0.07390128
235	0xbc306700	-0.010766745
236	0xbd6c5cd2	-0.057705708
237	0xbde2decb	-0.11077651
238	0x3d27b2ce	0.040942006
239	0x3cbcf024	0.023063727
240	0xbd71db35	-0.059046943
241	0xbca7b61d	-0.02047258
242	0x3d0dcb75	0.03461786
243	0x3c0b425b	0.008499707
244	0xbe282272	-0.1641939
245	0x3e63e4d5	0.22255261
246	0x3d9e2010	0.07720959
247	0xbda1c8c6	-0.078996226
248	0x3d508205	0.050905246
249	0x3e1dde0b	0.15416734
250	0x3dc4a268	0.09601289
251	0x3c92e726	0.017932486
252	0x3d9e2ef2	0.07723798
253	0xbe724552	-0.23659256
254	0xbd406762	-0.046973594
255	0xbd724631	-0.05914897

conv1.bias f4 [64]
0	0x3d1eabf2	0.0387382
1	0x3cbc072a	0.022952635
2	0xbddaefe0	-0.10690284
3	0x3e6517c7	0.22372352
4	0xbd77758a	-0.06041483
5	0xbc37b34f	-0.011212184
6	0xbcf3f480	-0.029779673
7	0xbd0404c0	-0.032231092
8	0xbdd95c44	-0.106133014
9	0xba9aaead	-0.0011801325
10	0xbde00b09	-0.10939605
11	0xbbf14a38	-0.007363584
12	0xbd3832e1	-0.044970397
13	0xbd1593e8	-0.036518008
14	0x3b3c000c	0.0028686551
15	0xbbdfedc0	-0.006833762
16	0xbd37ba8c	-0.04485564
17	0xba3ba643	-0.0007158259
18	0xbd1c727d	-0.038195122
19	0xbd29c11f	-0.04144394
20	0xbcf4057c	-0.029787771
21	0x3c41b45a	0.011822784
22	0xbdbb2959	-0.09138746
23	0xbdc1018d	-0.09424124
24	0x3dc2418a	0.09485157
25	0x3dc6be2c	0.09704241
26	0xbd386956	-0.04502233
27	0x3e9628c4	0.29327977
28	0x3dbd98e4	0.09257677
29	0xbc815861	-0.015789213
30	0xbca6187d	-0.020275349
31	0xbd8af6bd	-0.06785343
32	0xbc1855b6	-0.009297779
33	0xbd15d43f	-0.036579367
34	0xbd206076	-0.039154492
35	0x3d07076f	0.032966074
36	0x3d045a80	0.03231287
37	0xbd0186df	-0.031622764
38	0xbd854fc2	-0.06509353
39	0x3c413b45	0.011793916
40	0xbc84d316	-0.016213935
41	0x3d139168	0.036027342
42	0xbd59a120	-0.053132176
43	0x3e1e5f18	0.15465963
44	0xbcb0f1b0	-0.02159962
45	0xbd531ba8	-0.051540047
46	0xbbee81bb	-0.0072786487
47	0x3c882de3	0.016623443
48	0xbcc2a2da	-0.023759294
49	0x3c1581f3	0.009125221
50	0x3d278e35	0.040907104
51	0xbca2d04f	-0.01987472
52	0x3dcb25eb	0.09919342
53	0x3cecc207	0.028901113
54	0x3e157e1b	0.14598887
55	0x3d0bc5be	0.03412413
56	0x3bdbb3a7	0.006704766
57	0xbd09c5f9	-0.033636067
58	0xbb6b3b02	-0.0035893326
59	0x3cef1693	0.029185569
60	0xbcf652be	-0.030068751
61	0x3908aa9e	0.0001303353
62	0xb8628326	-5.400474e-05
63	0x3cb6e7f3	0.022327399

conv2.weight f4 [32, 64, 1, 1]
0	0x3d53152c	0.051533863
1	0xbc3b2f20	-0.01142481
2	0xbd8fc50c	-0.070200056
3	0xbdc60eec	-0.09670815
4	0x3de5dfd8	0.112243354
5	0x3d97518e	0.07388602
6	0x3d564384	0.05231048
7	0xbd13e7d3	-0.036109757
8	0xbcdaa6f8	-0.026690945
9	0xbd84340a	-0.06455238
10	0xbd260114	-0.040528372
11	0xbdb341bf	-0.087527744
12	0xbd4d1f34	-0.050078586
13	0x3d238695	0.03992327
14	0xbaf92a80	-0.0019009858
15	0xbd56fdb9	-0.052488063
16	0xbd5bf008	-0.05369571
17	0xbd8b4e96	-0.068020985
18	0xbdf8304a	-0.121185854
19	0xbd6a8848	-0.057258874
20	0xbd995f3a	-0.07488866
21	0xbde4c29c	-0.11169931
22	0xbda41cf9	-0.080133386
23	0x3d4d9454	0.050190285
24	0x3dba9dca	0.09112127
25	0x3d9777ec	0.0739592
26	0x3db22e96	0.08700292
27	0x3de765aa	0.11298688
28	0xbcc010fd	-0.0234456
29	0xbc3fc790	-0.011705294
30	0xbd10c7f8	-0.035346955
31	0x3dd4b23c	0.10385558
32	0xbd44e114	-0.048066214
33	0x3c5173a0	0.012783915
34	0xbdead635	-0.11466638
35	0x3da12f40	0.0787034
36	0xbd6f20e4	-0.058380976
37	0x3dfa0278	0.12207502
38	0xbca8d658	-0.02061002
39	0xbd47977c	-0.04872845
40	0xbbd24040	-0.0064163506
41	0xbd2cda1c	-0.042200193
42	0xbd49a69c	-0.049231157
43	0xbc7c8a14	-0.01541378
44	0xbdac6270	-0.08417213
45	0xbcc00748	-0.023440972
46	0x3d942139	0.07232899
47	0xbd3dfd48	-0.046384126
48	0xbdb9f2a4	-0.09079483
49	0xbd2f9342	-0.042865045
50	0xbdf8d22d	-0.12149463
51	0xbd8c5397	-0.06851881
52	0xbd1b7a26	-0.037958287
53	0x3daece6f	0.08535468
54	0xbda57f58	-0.080809295
55	0x3d5858df	0.05281913
56	0x3d1c82ac	0.038210556
57	0xbc653840	-0.013990462
58	0x3dfbda56	0.12297504
59	0xbd9132f6	-0.07089798
60	0xbdb05318	-0.08609599
61	0xbc67dc00	-0.014151573
62	0xbd958572	-0.07300843
63	0xbd16ee59	-0.0368484
64	0xbc98b272	-0.018639777
65	0xbc32dc7a	-0.0109168235
66	0x3dc0bee6	0.09411411
67	0xbee504a9	-0.44730118
68	0x3d1742e8	0.03692904
69	0xbee7a10c	-0.45240057
70	0xbdf6e1f4	-0.12054816
71	0xbb879ce4	-0.004138576
72	0x3d29b934	0.04143639
73	0xc00d58dd	-2.2085488
74	0xbe1bc754	-0.15212756
75	0x3da63d7e	0.081171975
76	0xbe0b900b	-0.13629167
77	0xbe62224b	-0.22083394
78	0x3e38855e	0.18019626
79	0xbf2ece08	-0.6828313
80	0x3df80c4e	0.12111722
81	0x3e1b44a6	0.15162906
82	0xbcb8f036	-0.022575479
83	0x3d12d2a9	0.035845432
84	0xbeb55544	-0.35416615
85	0xbd9444bd	-0.07239673
86	0x3c3d79d6	0.0115646925
87	0xbdf9975c	-0.12187073
88	0x3e67dded	0.22643252
89	0xbd53763e	-0.051626436
90	0x3cee064e	0.02905574
91	0x3d13d243	0.036089193
92	0x3d940f3a	0.07229467
93	0xbda7efa1	-0.082000025
94	0x3e89fec6	0.2695219
95	0x3d992610	0.07477963
96	0xbe821136	-0.25403756
97	0xbca1216e	-0.01966926
98	0x3c4f2d52	0.012645083
99	0xbb3ddfa1	-0.0028972405
100	0x3c8ca856	0.017170113
101	0x3e15d27a	0.14631072
102	0x3daa44b6	0.08313887
103	0x3c87473b	0.016513458
104	0x3d8fe052	0.070252076
105	0x3e3606ce	0.17776033
106	0x3c818aa0	0.015813172
107	0xbc197528	-0.009366311
108	0x3d15cd7d	0.036572922
109	0xbd2a9ff8	-0.041656464
110	0x3ee7c6ef	0.45268962
111	0xbdd052be	-0.10172032
112	0xbea5c1b8	-0.32374358
113	0x3da9d138	0.082918584
114	0x3cec848b	0.028871795
115	0x3f0147f2	0.50500405
116	0xbd92a336	-0.07160036
117	0xbeadf522	-0.33976084
118	0xbd416ac2	-0.047220953
119	0x3e61fe5e	0.2206969
120	0xbc1470c3	-0.009060088
121	0xbdb31070	-0.087433696
122	0xbe235c4c	-0.15953177
123	0xbe112841	-0.14175512
124	0xbdec62aa	-0.11542256
125	0xbd6a810e	-0.057251982
126	0xbe44df39	-0.19225778
127	0xbdd6f459	-0.10495824
128	0x3da4dcd5	0.08049933
129	0x3d8867ab	0.06660398
130	0xbdcebeae	-0.10094963
131	0xbe8d9792	-0.276547
132	0x3d856d2a	0.06514962
133	0x3e7409a8	0.23831809
134	0x3db7a17a	0.08966346
135	0xbe0a8010	-0.13525414
136	0xbdf759c6	-0.1207767
137	0xbed7e725	-0.42168537
138	0x3d66a206	0.05630686
139	0x3e6f9a46	0.23398694
140	0xbdd7b6e1	-0.10532928
141	0xbe8fbad2	-0.2807222
142	0x3daaf475	0.08347408
143	0x3e2aa0ee	0.16662952
144	0xbcd754f7	-0.026285632
145	0x3e3f934e	0.18708536
146	0xbed498c4	-0.415228
147	0xbd8859b8	-0.066577375
148	0x3dbed38d	0.09317694
149	0xbc9cf1ca	-0.019158263
150	0x3dcd80bd	0.100343205
151	0x3db0b582	0.0862837
152	0x3d0413e7	0.032245543
153	0xbe001c43	-0.12510781
154	0x3df91019	0.121612735
155	0xbec27a12	-0.37983757
156	0xbdd00154	-0.10156503
157	0x3bb18df5	0.005418534
158	0x3f0d9996	0.5531248
159	0x3c67f5ba	0.014157707
160	0xbe0a9d9b	-0.13536684
161	0xbd5fa3d1	-0.054599587
162	0xbd023a33	-0.031793784
163	0xbe7c2f90	-0.24627519
164	0x3d188f8c	0.037246272
165	0xbae86787	-0.0017731049
166	0xbd9590b8	-0.073029935
167	0x3bfb7d58	0.0076748542
168	0x3d15d6c9	0.03658179
169	0x3ce87ce6	0.028379869
170	0xbd661160	-0.056168914
171	0xbd7a721e	-0.061143987
172	0xbde96cf7	-0.113977365
173	0x3dfb0228	0.12256271
174	0x3e8a14cd	0.26968995
175	0x3d27515e	0.040849082
176	0x3d9623fa	0.07331081
177	0xbde28f4c	-0.11062488
178	0xbe0a8e39	-0.13530816
179	0x3d8d30f1	0.068941005
180	0xbdde059c	-0.10840914
181	0x3d0cb5fb	0.034353238
182	0x3e0a3e1d	0.13500257
183	0x3e62743c	0.22114652
184	0x3e43b480	0.19111824
185	0xbd171c4c	-0.03689222
186	0x3ca99523	0.020700997
187	0x3e6c2312	0.23060253
188	0xbdff64f8	-0.1247043
189	0xbe2db7a6	-0.16964588
190	0xbe025d38	-0.12730873
191	0x3e027417	0.12739597
192	0x3d1cb5ab	0.03825919
193	0x3e8c1b14	0.2736441
194	0xbd24273c	-0.04007648
195	0xbf191870	-0.59802914
196	0xbdb91e66	-0.09039001
197	0xbe0d742a	-0.13813844
198	0x3d81af62	0.0633228
199	0x3b0979da	0.002097717
200	0x3d9e14e6	0.0771883
201	0xbc3e0b00	-0.011599302
202	0x3e907de1	0.28221038
203	0xbe9f1e8c	-0.31077993
204	0x3e1e1cc5	0.15440662
205	0xbec04359	-0.37551382
206	0x3d9a44ab	0.075326286
207	0x3eb9008b	0.36133227
208	0x3db89df2	0.09014501
209	0x3e207788	0.15670598
210	0xbdf8224d	-0.12115917
211	0x3c7383b7	0.014862946
212	0xbe444cf9	-0.19169988
213	0xbd8ba1d2	-0.06817974
214	0x3e2d788c	0.16940516
215	0xbdf07c48	-0.11742455
216	0x3ec1f1a6	0.37879676
217	0x3dd554e9	0.10416586
218	0xbdedb6b4	-0.116071135
219	0xbea16f31	-0.31530145
220	0xbc9e3064	-0.019310184
221	0x3dc6f79e	0.09715198
222	0xbdb466c8	-0.088086665
223	0x3c25d4e5	0.010121559
224	0xbf35bb0c	-0.70988536
225	0x3d5db451	0.05412704
226	0x3e446111	0.19177653
227	0x3e3cc36b	0.18433921
228	0x3e165724	0.14681679
229	0xbd0286ba	-0.031866767
230	0xbdcb7cc2	-0.09935905
231	0x3db2f97a	0.0873899
232	0xbe074c9b	-0.13212816
233	0xbeb36ca3	-0.3504382
234	0x3dfc40dc	0.123170584
235	0xbe22bf75	-0.15893348
236	0xbc280c7c	-0.010256883
237	0x3d9ebe84	0.07751182
238	0x3ed05ad8	0.40694308
239	0xbd8f4833	-0.06996193
240	0x3d0f6562	0.035008796
241	0xbf5e3556	-0.86800134
242	0x3e21ad8d	0.1578886
243	0x3cede97e	0.029042002
244	0x3ea773b7	0.3270547
245	0x3e41635a	0.18885556
246	0x3e57bb90	0.21067643
247	0x3d80accd	0.06282959
248	0x3d5447b0	0.05182618
249	0xbd096e74	-0.033552602
250	0x3dae3c28	0.08507568
251	0x3cb2d454	0.021829762
252	0xbd8e5667	-0.06950074
253	0xbdacb81c	-0.084335536
254	0xbbefdda2	-0.007320122
255	0x3e6dbb9f	0.23216103

conv2.bias f4 [32]
0	0xbd92b712	-0.07163824
1	0x3d2abb93	0.04168279
2	0x3e2db1e7	0.16962396
3	0x3e09b9ce	0.13449785
4	0xbca07f07	-0.019591821
5	0xbccca480	-0.024980783
6	0xbe03458e	-0.12819502
7	0x3caaf6a2	0.020869557
8	0xbe21478a	-0.15749946
9	0xbd91962b	-0.071087204
10	0x3d590089	0.052979026
11	0x3d414396	0.047183596
12	0xbdbf138b	-0.093298994
13	0xbe14969c	-0.14510578
14	0x3cfa71af	0.030571787
15	0x3cd5f4fd	0.026117796
16	0xbd2879c3	-0.041131746
17	0x3ddff706	0.10935788
18	0x3da40109	0.0800801
19	0x3d4089d1	0.047006432
20	0xbd3359c4	-0.04378678
21	0x3beec1d9	0.007286292
22	0xbc2d14d4	-0.010564048
23	0xbd66c968	-0.05634442
24	0xbd15bea0	-0.036558747
25	0xbd1fcdaa	-0.039014496
26	0x3c10d29b	0.008839275
27	0xbc36eff2	-0.011165606
28	0xbda11be8	-0.07866651
29	0x3e0079f1	0.12546517
30	0x3db4149f	0.08792996
31	0x3d2aa7cb	0.041663926

conv3.weight f4 [1, 32, 5, 5]
0	0x3ca52cb6	0.020162921
1	0x3cad6b5d	0.021169359
2	0xbbfb4250	-0.007667817
3	0xbcc23652	-0.023707543
4	0x3d0fe40c	0.03512959
5	0x3bd9fec2	0.006652684
6	0xbc9158d5	-0.017742554
7	0xbbde4913	-0.0067836135
8	0xbd069049	-0.032852445
9	0xbc4657b8	-0.012105875
10	0x3c929e38	0.01789771
11	0xbb9f58db	-0.0048628873
12	0x3b8f1e90	0.004367657
13	0x3c2c4273	0.01051389
14	0x3af5cfa9	0.0018753904
15	0x3c3d500f	0.011554732
16	0x3abbf872	0.001434101
17	0x3bef30ea	0.007299532
18	0xbce1adba	-0.02754866
19	0x3af197e6	0.001843211
20	0x3bb39927	0.0054809037
21	0x3d0fbd6d	0.03509276
22	0x3b9e3745	0.004828366
23	0xbc897197	-0.016777797
24	0x3d0a4479	0.033756707
25	0x3dcd9a45	0.1003919
26	0x3d922317	0.07135599
27	0x3e52d1b9	0.20587815
28	0x3d54931a	0.0518981
29	0x3d8385ae	0.06421982
30	0x3cd9f49d	0.026605899
31	0x3e9d2ec8	0.30699754
32	0x3e581b7d	0.21104236
33	0xbdac1cdb	-0.08403941
34	0xbd65e29b	-0.05612431
35	0x3e4f9982	0.20273402
36	0x3e606c9b	0.2191643
37	0x3c097101	0.008388759
38	0xbdd6d610	-0.10490048
39	0x3baf2f1f	0.0053461934
40	0x3da08480	0.07837772
41	0x3ceeb905	0.029140959
42	0xbd9220f4	-0.071351916
43	0xbd63cc35	-0.05561467
44	0x3d390cc0	0.045178175
45	0xbd4bf72f	-0.04979628
46	0xbddabc24	-0.10680416
47	0x3caa5f14	0.02079729
48	0x3da025bf	0.078196995
49	0x3d6d1d8e	0.057889514
50	0xbce81b7f	-0.028333424
51	0xbd958583	-0.07300856
52	0xbdbc9423	-0.09207942
53	0x3c0d26e3	0.008615228
54	0x3d17faa2	0.037104256
55	0x3d102d5e	0.035199516
56	0x3cbc1a18	0.022961661
57	0x3c667dc4	0.014068071
58	0x3c3fd8f8	0.011709444
59	0x3d6edf3a	0.058318354
60	0x3bac7564	0.0052630175
61	0x3d4dbfb3	0.050231647
62	0x3e1ad241	0.15119268
63	0x3db071c8	0.08615452
64	0xbd29bb5d	-0.04143845
65	0x3c7160b8	0.014732532
66	0xbb2c19d8	-0.0026260521
67	0x3d40efee	0.047103815
68	0xbca58012	-0.02020267
69	0xbdbaca68	-0.09120637
70	0xbc828945	-0.015934596
71	0xbd49497a	-0.04914234
72	0xbc36a84d	-0.0111485245
73	0xbd59a0a1	-0.053131703
74	0xbd631678	-0.05544135
75	0x3cc131df	0.02358335
76	0x3dbbc10d	0.09167681
77	0x3d52d47b	0.05147217
78	0xbc060cdd	-0.008181778
79	0xbd85cb44	-0.065329105
80	0x3cc9c131	0.024628254
81	0x3df6975a	0.12040587
82	0x3e214bf0	0.15751624
83	0x3dda3156	0.10653941
84	0x3c0f13bb	0.008732731
85	0xbd96b3dd	-0.07358525
86	0x3d1b48cc	0.03791122
87	0x3d297f7a	0.041381337
88	0x3dac9470	0.0842675
89	0xbcf8b983	-0.030361896
90	0xbd8fe2df	-0.07025694
91	0xbd704bea	-0.058666147
92	0xbd3e2bab	-0.046428364
93	0xbb4d9861	-0.0031371342
94	0xbc4c7f75	-0.01248156
95	0xbd1654b5	-0.036701877
96	0xbd43b9d7	-0.047784653
97	0xbdec6ed5	-0.11544577
98	0xbdb8d2a9	-0.09024555
99	0xbdb528ea	-0.08845694
100	0xbd4fb216	-0.050706945
101	0xbd616d7c	-0.055036053
102	0xbce16599	-0.027514266
103	0x3da29672	0.079388514
104	0xbdf52460	-0.119698286
105	0x3cb7c453	0.022432482
106	0xbcd01d69	-0.025404649
107	0xbcfc723e	-0.030816194
108	0x3c2c0e43	0.010501447
109	0xbcc07148	-0.023491517
110	0x3cef234f	0.029191641
111	0xbd635f61	-0.055510882
112	0xbd8c24da	-0.068429664
113	0x3d25887c	0.040413365
114	0x3c4d57f6	0.012533179
115	0x3d96a57c	0.073557824
116	0x3d229278	0.039690465
117	0x3d3b4e8f	0.045729216
118	0x3d58c798	0.052924722
119	0x3aad9ccb	0.001324558
120	0xbdcb6a0d	-0.09932337
121	0xbd2f4f0d	-0.042799998
122	0x3d174d11	0.03693873
123	0x3d46f972	0.048577733
124	0xbbcdf62e	-0.0062854504
125	0x3aeab533	0.0017906785
126	0xbcd607d5	-0.026126781
127	0x3c86e53b	0.016466727
128	0xbc882c32	-0.016622636
129	0xbc1d0077	-0.00958263
130	0xbccb4ba5	-0.024816344
131	0x3d15d0ee	0.036576204
132	0x3d91cd5b	0.071192466
133	0x3d90ed9c	0.070765704
134	0x3d04f362	0.03245867
135	0x3b663890	0.0035128929
136	0x3d7228a1	0.059120778
137	0x3d6c9c76	0.0577664
138	0x3e05437b	0.13014023
139	0x3d8dcb88	0.06923586
140	0x3c9dbd6c	0.019255362
141	0x3d87e853	0.06636109
142	0x3d88b876	0.06675808
143	0x3e000e0e	0.12505361
144	0x3d9bafe4	0.07601908
145	0x3d8657fc	0.065597504
146	0x3d943f50	0.072386384
147	0x3d0bbb45	0.03411414
148	0x3d01323a	0.03154204
149	0xbbb6ec87	-0.0055823955
150	0x3cc95227	0.024575306
151	0x3dc43d04	0.0958195
152	0x3d0a1f29	0.033721123
153	0xbca513e4	-0.020151086
154	0xbd9e4fa9	-0.07730038
155	0x3d13d174	0.036088422
156	0x3d5fb4f2	0.054615922
157	0xbd698556	-0.057011925
158	0xbdf68bdb	-0.12038394
159	0xbdaf4165	-0.08557395
160	0x3d94b5ee	0.07261263
161	0x3e0198d1	0.12655951
162	0xbd7d3085	-0.06181385
163	0xbe0eefae	-0.13958618
164	0xbd7e7f97	-0.062133398
165	0x3dda4b9e	0.10658954
166	0x3dcbfdcc	0.09960517
167	0x3d511187	0.051042106
168	0xbd937561	-0.072001226
169	0xbdab7f4a	-0.08373888
170	0x3ca0be74	0.019622065
171	0x3de48e81	0.11159993
172	0x3c6b2a06	0.014353281
173	0xb8bd3909	-9.022846e-05
174	0xbd89bba8	-0.06725246
175	0xbd8aad54	-0.06771341
176	0x3b77f3ad	0.003783445
177	0x3da1c84c	0.07899532
178	0x3d94fab3	0.072743796
179	0x3c5713e3	0.0131273
180	0x3c42ca67	0.011889077
181	0xbd13d40a	-0.036090888
182	0xbd4326fc	-0.0476446
183	0xbd7d766a	-0.061880507
184	0xbcb9c3c4	-0.022676356
185	0xbc9cec3b	-0.019155612
186	0xbd552919	-0.052041147
187	0xbcd74b11	-0.026280912
188	0xbd9f2626	-0.07770948
189	0xbc3adba7	-0.011404908
190	0x3da1538f	0.07877266
191	0xbe6dbf8e	-0.23217604
192	0xbcbd5aa4	-0.02311451
193	0x3e10015d	0.1406302
194	0xbda0ba01	-0.078479774
195	0x3dd1376c	0.10215649
196	0xbd1dcef3	-0.03852744
197	0xbdd6c9a9	-0.10487682
198	0xbc08b4af	-0.00834386
199	0xbd485dee	-0.048917703
200	0x3bf29845	0.007403406
201	0xbd08dc01	-0.033412937
202	0xbcc5aa63	-0.024129098
203	0xbd13231c	-0.035922155
204	0xbcf732b8	-0.030175552
205	0xbc7a8bcd	-0.01529212
206	0xbbfa9702	-0.007647396
207	0xbd134195	-0.035951216
208	0xbb1f602c	-0.0024318798
209	0xbd507f05	-0.050902385
210	0xbc463868	-0.012098409
211	0xbc91daca	-0.017804522
212	0x3b26e34d	0.0025465072
213	0x3d199022	0.03749097
214	0x3bb78a30	0.00560119
215	0xbce2d0f8	-0.027687535
216	0xbcbf3793	-0.02334193
217	0xbd04c740	-0.032416582
218	0x3cac563f	0.02103722
219	0xbb85ecf5	-0.0040870854
220	0x3d2c42ab	0.042055767
221	0x3793f891	1.7639513e-05
222	0x3bc9ddf5	0.0061604925
223	0x3c09da3b	0.008413847
224	0xbbf96d67	-0.0076119187
225	0x3cb2c8af	0.021824209
226	0x3ca98cc6	0.020697009
227	0xbd0b90aa	-0.03407351
228	0x3cef57be	0.029216643
229	0xbc19d1ce	-0.0093884
230	0x3c9ca07c	0.019119494
231	0x3c9007f3	0.017581915
232	0xbc89874c	-0.016788147
233	0x3c31ced2	0.010852532
234	0x3c7aba60	0.015303224
235	0xbd14166c	-0.036154196
236	0x3aae3c9f	0.0013293213
237	0x3b71e519	0.0036910234
238	0xbcd7b637	-0.026332004
239	0xbc66ff35	-0.014098932
240	0xbce49680	-0.027903795
241	0x3c1b598d	0.0094818
242	0x3caa84ed	0.020815337
243	0x3b5b814d	0.0033493817
244	0xbcb517f2	-0.022106145
245	0x3c6a266f	0.01429139
246	0x39d12320	0.00039889757
247	0xbcb2b66d	-0.021815503
248	0x3c847ced	0.01617285
249	0x3d03eac0	0.032206297
250	0x3c1a9814	0.009435672
251	0xbc3609b5	-0.011110713
252	0xbb29a9c0	-0.0025888532
253	0x3da0fabf	0.07860326
254	0x3add7469	0.0016895655
255	0xbc39fc4a	-0.011351654
